CUB/pretrained_conv4d.pth (torch, 462929 bytes, 24 tensors)

encoder.0.weight f4 [64, 3, 3, 3]
000000 71 e5 ac 3e 1b 5b 2f 3f 02 f1 f5 bd 77 bb 6b 3e
       0.337688 0.6849839 -0.12008859 0.23020731
000010 93 96 60 be 0a 96 d4 be c0 86 64 be 5c 8a 46 3e
       -0.2193244 -0.4152072 -0.22317028 0.19388717
000020 a8 12 3e 3f e8 bf e2 3c a7 e1 87 3d 5c b6 7b bf
       0.7424722 0.027679399 0.06634837 -0.98325133
000030 c5 f6 02 bf f4 bb 8d bf 4e 93 a0 bf 44 82 3c bf
       -0.5115779 -1.1072984 -1.2544954 -0.7363627
000040 b7 bd 2d be cb 7f 0b 3e 14 16 43 3e 59 c0 dd 3e
       -0.16966902 0.13622968 0.19051391 0.43310812
000050 e3 2a ea bc b3 88 08 3f d2 18 a2 3e ee 35 1d 3e
       -0.028584903 0.53333586 0.3165956 0.15352604
000060 c7 42 35 3d ad 81 ea 3d 2d 63 e3 3e 04 69 14 3f
       0.044253137 0.11450515 0.44411603 0.5797274
000070 49 fc d0 3e 9c 95 a9 3d eb 27 e1 3d 44 2d f6 be
       0.40817478 0.08280489 0.10993942 -0.4808141
000080 0c ab e8 be 70 1d 1b bf 98 c5 0f bf 58 a9 8e be
       -0.45442998 -0.60591793 -0.5616088 -0.27863574
000090 c3 bd 4c 3f ec b2 72 3f 19 5e 8f 3e 95 0a 64 3d
       0.79977053 0.94804263 0.28001478 0.055674154
0000a0 cd 36 97 3e e3 c8 84 3e 00 2c 03 bf d8 b6 d6 be
       0.29533997 0.25934514 -0.51239014 -0.41936374
0000b0 39 7f 80 be e8 f4 1b bf d5 f6 f1 be 36 6d 0e bf
       -0.25097063 -0.6092057 -0.4725863 -0.5563539
0000c0 7d 0d ad bd 47 35 f0 be cc 6b d4 3e 09 71 a6 3e
       -0.08449838 -0.46915647 0.41488492 0.32508114
0000d0 fc 99 10 3f 98 43 5a 3f ac 5b cc bb c9 e1 5f 3e
       0.5648496 0.8525939 -0.006236514 0.21863474
0000e0 94 0e 4c 3f dd 17 41 3e 74 ff b2 be 1a 43 22 3d
       0.79709744 0.1885676 -0.3496052 0.039614774
0000f0 11 d6 0f be f9 74 06 3e 7c 43 2b be 37 a2 f0 be
       -0.14046504 0.13130559 -0.16724962 -0.4699876
000100 b4 d1 06 bf f0 64 b6 3e 43 7e 41 bf e4 f0 90 bf
       -0.5266373 0.35623884 -0.75583285 -1.1323514
000110 17 ca 01 bf 01 a9 dc be 1c c1 dc be fa 97 17 bf
       -0.5069899 -0.4309769 -0.4311608 -0.5921627
000120 07 6b df 3e 30 92 9b 3e 65 20 e1 3e 3e 26 2a 3f
       0.43636343 0.3038497 0.43970028 0.664646
000130 6a bf 3e bc 1c f8 fa 3d d5 e4 28 3f c2 a1 0c 3f
       -0.011642316 0.12254354 0.6597417 0.5493432
000140 24 ef ad 3e 4f 6a d3 be 80 2c 56 3e 35 63 39 3f
       0.33971512 -0.41292045 0.20915413 0.72417
000150 f8 21 85 bd 92 80 0b bf fd 01 12 3f ed c5 0f 3f
       -0.0650062 -0.5449306 0.57034284 0.56161386
000160 c3 51 07 bf 03 74 5b be 27 0b 72 bf 2d 9b a0 be
       -0.52859133 -0.21430974 -0.9454827 -0.3136839
000170 05 1f 0d 3f 69 db 8a be 3e 9e 54 bf 59 a6 3c 3f
       0.5512546 -0.27120522 -0.8305396 0.73691326
000180 3b 85 03 3f 2d 29 25 bf aa d3 52 3e de 8b 57 3e
       0.5137517 -0.64515954 0.20588556 0.21049449
000190 81 c4 8c 3d 9f 17 9c 3e 36 43 fe bc 5c db 04 bf
       0.06873418 0.3048677 -0.031037908 -0.51897216
0001a0 8b 13 95 3e 24 cd 00 3f a7 dc f9 be 47 9a a7 3d
       0.29116473 0.5031302 -0.48801157 0.08183723
0001b0 3f af b5 be 39 7a 2c bf c7 81 4b bf 85 47 34 3e
       -0.35485265 -0.67373997 -0.794949 0.17605408
0001c0 e9 aa 3b 3e 59 cc 77 3e 34 76 ec 3d 39 0b 0f bf
       0.18326916 0.24199046 0.11545983 -0.558765
0001d0 ab 7b c7 be 4e b7 48 be 53 71 2f 3e 6b 7a fe be
       -0.3896154 -0.19601175 0.17133074 -0.49702772
0001e0 a0 52 52 3f b4 1c 10 3f 32 4f 0d 3f 4f 44 d1 3c
       0.82157326 0.562938 0.5519897 0.025545267
0001f0 67 06 96 3c 3f 80 83 3e 7a 3f 1e bf 79 e1 72 bf
       0.0183136 0.25683782 -0.6181561 -0.94875294
000200 3b d7 72 bf 20 9b 21 3f a3 31 ae 3e 68 ea 28 3e
       -0.94859666 0.63127327 0.34022245 0.16495669
000210 d2 fc 1b 3f ae 1c 22 3e f7 d0 49 3e e4 1b 78 3f
       0.6093265 0.15831253 0.1970862 0.9691756
000220 ed 0f 25 3f 95 fc 05 3f 13 21 bc bd 13 6b 16 bf
       0.64477426 0.52338535 -0.09185996 -0.5875713
000230 60 4e ea bd 3b 6a 4c bf 14 1a 28 bf 9c 6d 94 3e
       -0.1144073 -0.79849595 -0.6566479 0.28989875
000240 35 fd 03 3e 16 4e b2 3c af 8e 33 bd 4b 66 35 be
       0.1288956 0.02176575 -0.043837246 -0.17714803
000250 a3 93 12 bf 2b cd 80 be 59 3c ec bd 7a 43 ea be
       -0.57256526 -0.2515653 -0.11534948 -0.45754606
000260 e0 ce 13 3f 43 bd f1 3e 1b a3 dd be 4e b3 61 be
       0.5773754 0.47214708 -0.43288502 -0.22041056
000270 da 49 87 be 30 e0 0d bf d6 a8 1d bf 99 4d 2a 3d
       -0.26423532 -0.5542021 -0.6158575 0.04157791
000280 0f 72 08 bf a0 9e da be 83 b8 d0 3f fc fa aa 3f
       -0.5329904 -0.42699146 1.6306309 1.3357844
000290 83 32 00 3e 4b c1 00 40 17 74 a6 3f a6 e5 a9 3d
       0.12519269 2.0117977 1.3004178 0.08295755
0002a0 89 c0 bb 3e 12 97 d3 bd 4d 4f 45 bf 1f 35 03 be
       0.3667033 -0.10331549 -0.7707413 -0.12813233
0002b0 b4 99 88 bd fa 0e 49 3c 82 5f 7f be 56 75 d0 3c
       -0.066699415 0.012271637 -0.24938777 0.025446575
0002c0 3b 1d 07 bd 02 13 39 bd 77 5e 50 be a9 b5 08 bf
       -0.03298686 -0.045184143 -0.20348535 -0.5340219
0002d0 46 82 d2 bd 34 53 51 3d 4b 09 6c 3d 65 07 94 3d
       -0.10278754 0.05110474 0.05762605 0.07227973
0002e0 c5 f7 0b 3d de f9 09 3e 1a c5 d6 be 9c 5a 9f bd
       0.03417184 0.13474223 -0.41947252 -0.07780954
0002f0 7f 3e c8 be 11 8b 8c 3d d8 6a 98 bd dd e3 10 3d
       -0.3911018 0.06862462 -0.07442254 0.035373557
000300 f1 bc b6 be c0 b6 69 bd ab fd 66 be 2c 9d 02 bf
       -0.35691026 -0.05705905 -0.22557704 -0.51021075
000310 78 0b 1e bf 40 f2 cf 3e f2 19 59 3f 7f 84 85 3f
       -0.6173625 0.4061451 0.84805214 1.043106
000320 df 71 6b 3f 7f 54 ba 3e b9 6b fd 3e 3e fd db 3e
       0.9197063 0.3639259 0.49496248 0.42966646
000330 8f df 83 be 3c f5 30 be 5f 83 c1 3e 65 6e 03 3f
       -0.257565 -0.1728105 0.3779554 0.51340324
000340 58 d3 e7 be 8e f9 68 3c 30 fa b7 bd ac 82 1b bf
       -0.4527843 0.014219655 -0.08983266 -0.60746264
000350 e1 15 26 be a3 c3 cd be 2b d3 5d bf d0 cf 5d be
       -0.16219284 -0.4018832 -0.8665034 -0.21661305
000360 30 9b 08 be b2 84 a8 be 02 d9 e0 be 88 60 16 bf
       -0.1334045 -0.32913738 -0.43915564 -0.58741045
000370 c1 38 3a bf 33 46 32 bf db 69 a8 bd 2f 8a 61 bf
       -0.7274285 -0.69638366 -0.08223315 -0.88101476
000380 cc 12 32 bf a1 43 e7 3e 57 0a c9 3c d5 45 d5 3e
       -0.6955993 0.45168784 0.024541063 0.4165484
000390 f4 25 7f be 88 ee dd bd 08 93 1c 3d 7d 6a 95 3e
       -0.24916822 -0.10836512 0.038226157 0.29182807
0003a0 f0 26 ac be e8 bb 08 3d bc ab 76 3f 32 b9 44 3f
       -0.33623457 0.033382326 0.96355796 0.76845086
0003b0 85 8e 45 3f 72 a3 b7 3e b0 40 8e 3e c7 ee 4c 3e
       0.7717059 0.35866886 0.27783728 0.20012961
0003c0 e5 22 b8 3e 8d fe 27 3e ee 00 4a 3e e9 c9 73 bf
       0.35964122 0.16405697 0.19726917 -0.95229965
0003d0 4f ca da bd 67 4c 13 3d dd 48 a2 3d 82 5e 09 3e
       -0.106831186 0.035961535 0.07924054 0.13414958
0003e0 cf e6 b4 3e 6e ed 20 3f 98 a8 40 3e f5 96 0a 3f
       0.35332343 0.6286229 0.18814313 0.5413659
0003f0 88 a8 2c bf 1d 55 6b 3e 89 c0 69 3e ab f7 03 be
       -0.6744466 0.22981687 0.22827353 -0.12887447

encoder.0.bias f4 [64]
000000 55 52 5a 3e e3 de a4 3e b2 e4 cc 3e f1 f5 10 bf
       0.2132047 0.322013 0.4001823 -0.56625277
000010 05 64 05 be 16 7c c1 bd e2 d7 b1 3e 9e da 90 3e
       -0.13026436 -0.09447496 0.34735018 0.28291792
000020 6b a2 8d 3d f2 7a 96 bc cb 92 e9 3e 4b 08 3b 3e
       0.069157444 -0.018369172 0.45619807 0.18264882
000030 c6 15 e0 be 8e d9 2b 3e 2f dc e6 bc 52 e2 a2 3e
       -0.43766612 0.1678221 -0.028181164 0.31813294
000040 2b 86 a2 3e 29 80 e3 bc 19 cd 58 3e 6d be e9 3d
       0.31742987 -0.027771072 0.21171989 0.11413274
000050 db 59 e0 3e c2 99 21 3e 41 41 cc 3e 71 51 e1 bc
       0.43818554 0.1578131 0.39893535 -0.027504655
000060 fd eb b1 3e f5 ee 80 be 2c c3 c2 3e fb 80 23 3e
       0.34750357 -0.2518231 0.3803953 0.15967171
000070 94 8d 11 3f 5d 85 0d be ee 72 cf be 24 ce ca be
       0.56856656 -0.13820405 -0.40517372 -0.39610398
000080 a1 a1 4c 3e 77 8d 08 3e 67 df bb 3e ce 87 d3 3e
       0.19983532 0.13335215 0.3669388 0.41314548
000090 e6 52 b0 ba 38 3c 16 be 32 15 72 3d 78 e4 cb 3e
       -0.001345244 -0.14671409 0.059102245 0.39822745
0000a0 a9 65 a5 3e 0c 99 f1 3e 41 2a 6d 3e cc d5 93 be
       0.32304123 0.47187078 0.2316065 -0.28874052
0000b0 f6 03 46 3e ee 71 bb be c0 8d 0e be f8 fe 99 3e
       0.19337448 -0.3661036 -0.13921261 0.30077338
0000c0 b9 09 5b bd 40 2d 00 be ec 74 39 3d 05 44 d8 3d
       -0.05347607 -0.12517262 0.04527752 0.10559849
0000d0 30 89 29 be 42 70 f8 bd 53 75 04 3f 8b f8 af 3e
       -0.16556239 -0.121307865 0.5174152 0.3436931
0000e0 76 91 d5 3d 53 71 fd bc 7d 3d ac 3d 44 a8 2f be
       0.10428135 -0.030937826 0.084101655 -0.17154032
0000f0 41 33 12 3f ad a3 33 3e 8b 6e c6 be a3 05 fb 3d
       0.5710946 0.17542906 -0.38756213 0.122569345

encoder.1.weight f4 [64]
000000 38 b3 58 3f 3b b0 a0 3f f7 84 0f 3f 83 6d 9d 3f
       0.84648466 1.2553781 0.56062263 1.2299045
000010 fe 99 6b 3f 12 da 21 3f 8c 5e 23 3f d9 3a e4 3e
       0.9203185 0.63223374 0.6381614 0.44576147
000020 cb 81 95 3e 72 64 2e 3f c2 c3 95 3f da b4 97 3f
       0.29200587 0.6812202 1.1700366 1.1852067
000030 d0 ab 88 3f d8 9d a7 3e c7 3f 40 3f ad d7 4a 3f
       1.0677433 0.32737613 0.75097317 0.79235345
000040 25 6c 64 3f ea 4c 8d 3f 57 1e aa 3f e4 3a 79 3f
       0.89227515 1.1039097 1.3290509 0.97355485
000050 3f ac 93 3f a9 88 4e 3f c5 dd 4a 3f bd 74 b8 3f
       1.153694 0.80677277 0.79244643 1.4410626
000060 28 2b b9 3f 84 59 1e 3f 47 18 95 3f ea 76 6a 3f
       1.4466295 0.6185534 1.1648034 0.915877
000070 94 b8 81 3f 35 91 8b 3f 72 b7 a6 3f 1f ef 1a 3f
       1.0134454 1.0903689 1.3024733 0.6052112
000080 ec 4d 8e 3f dd 5a 25 3f 9c ed 80 3f d0 5c a4 3f
       1.111753 0.6459177 1.0072513 1.2840824
000090 c7 26 8b 3f ba 9a 4b 3f 90 63 4d 3f 4c 10 af 3f
       1.0871209 0.7953297 0.80230045 1.3676848
0000a0 fe 0f 8a 3f c0 ad 8b 3f ac 11 b5 3f 25 0c 90 3f
       1.078613 1.0912399 1.4146018 1.1253706
0000b0 b1 f1 85 3f 94 8c a9 3f 61 3b 5b 3f 8e de 95 3f
       1.0464383 1.3246026 0.8563748 1.1708543
0000c0 f5 3a a4 3f 9e 97 a9 3f 3d 77 4a 3f 72 29 44 3f
       1.2830492 1.3249395 0.79088193 0.7662574
0000d0 a1 70 59 3f aa 6f 3b 3f 29 b3 c3 3f 40 44 97 3f
       0.84937483 0.7321726 1.528905 1.1817703
0000e0 76 9e 3d 3f 62 80 a1 3f 64 94 a9 3f 3c e1 0b 3f
       0.7406992 1.2617304 1.324841 0.54640555
0000f0 1d ef 30 3f 02 2e c1 3e a6 b0 86 3f 17 32 34 3f
       0.6911486 0.37730414 1.0522659 0.7038893

encoder.1.bias f4 [64]
000000 4f 11 d0 be a9 b4 a9 3f cf 07 db 3d c7 21 ec bd
       -0.40638205 1.3258258 0.10694849 -0.1152988
000010 ea ff 4d 3d 28 2b 17 bf 9b c2 a0 be 46 32 84 bd
       0.050292887 -0.59050226 -0.31398472 -0.064549014
000020 9d 28 6e 3d b0 14 18 bf 0d 31 0f 3f 05 72 31 bd
       0.0581442 -0.59406567 0.5593422 -0.043321628
000030 c9 ab be 3e 68 49 fc 3d dc b5 36 be 23 b1 a0 3f
       0.37240437 0.12318689 -0.17842811 1.2554058
000040 c8 6a ad bd 6b c7 35 3f b1 f0 12 3c a1 b9 66 3e
       -0.084676325 0.7100741 0.008968518 0.2253175
000050 87 28 0d 3f 31 da 42 bf d4 ad ac be 5d 1c 40 be
       0.55139965 -0.76114184 -0.3372637 -0.1876082
000060 1c 59 ff bc 8c e2 43 3d 20 af ac bf e7 38 5b bf
       -0.03117042 0.047823474 -1.3490944 -0.856337
000070 df 70 1b 3f fb bd 6b be b4 02 84 3d aa 96 92 3c
       0.607191 -0.2302169 0.06445828 0.017894108
000080 93 64 b5 bd d8 b7 1d bf d1 06 a9 3e b5 5a e3 bd
       -0.08857074 -0.6160865 0.33013013 -0.11101285
000090 1f 08 65 bf 6f ee d4 3e cd 8b 7a bf 69 35 5c 3e
       -0.89465517 0.4158816 -0.9786957 0.2150475
0000a0 25 64 42 3f 35 66 d6 bf de 69 ca 3e 5b 0b 94 bc
       0.7593406 -1.6749941 0.39533895 -0.018071821
0000b0 3f 0e 97 3e ab e5 fe bd 8c 23 b2 be c5 c6 38 bf
       0.29503056 -0.124461494 -0.34792745 -0.721783
0000c0 44 35 06 bf 92 90 29 3e dc 6f 26 bf 67 c0 09 bf
       -0.52425027 0.16559055 -0.65014434 -0.5380921
0000d0 ed 53 a1 be a7 ec 61 3e d4 7d ce bf 31 74 f9 bf
       -0.31509343 0.22062932 -1.613215 -1.9488584
0000e0 46 dc 71 be 1b 1e dc bc c9 b3 93 bf 55 b8 b4 be
       -0.23619184 -0.026869824 -1.1539241 -0.35296884
0000f0 bd 7a 02 be 5b 3d d4 3c 4e 24 36 3f 68 82 92 3e
       -0.12742133 0.025908163 0.71149147 0.28615117

encoder.1.running_mean f4 [64]
000000 e5 fa 79 be 9a 36 05 3f 31 78 e8 3a d0 3a 2c bf
       -0.24412115 0.5203644 0.0017736015 -0.6727724
000010 f2 e1 fa 3d 18 27 83 be eb 92 12 bd a2 97 31 3f
       0.12250127 -0.25615764 -0.035784643 0.69372
000020 3c 90 d4 3e 98 ce b5 bd f7 a6 28 3f ff 41 3d 3e
       0.41516292 -0.08877295 0.6587977 0.18482207
000030 0b af 0a bf e4 80 a1 3e 1e 1e d3 be 74 24 36 3f
       -0.54173344 0.31543648 -0.41233915 0.71149373
000040 cd a0 85 3d ff 3d 98 be cf 6d a1 3d 20 63 0b bd
       0.06524811 -0.297348 0.078822725 -0.03403008
000050 31 93 3f 3e d7 ef 10 be b8 bf 77 3d 76 35 3f bd
       0.18708493 -0.14153992 0.06048557 -0.046681844
000060 7e 3f c5 3e 2b a8 3a bf c3 54 5e be 82 98 e0 3e
       0.38525003 -0.72912854 -0.21712022 0.43866354
000070 6c 16 d9 3e 5b d7 ee bd 55 a1 b3 be 0a ea 34 bf
       0.4239992 -0.116621695 -0.35084024 -0.70669615
000080 3c 01 a6 3e 45 6d 38 3f 45 39 19 3d bb 6a 94 3e
       0.32422817 0.7204173 0.037408132 0.2898768
000090 73 c4 53 3e 6c d3 55 bf fc d3 d8 bd 55 52 d4 3e
       0.20680408 -0.8352573 -0.10587308 0.41469064
0000a0 cd 20 66 3e ba 6d 01 3e 5f a7 6f 3e ce 64 b0 be
       0.2247345 0.12639514 0.23403691 -0.34451908
0000b0 05 44 a8 be bf 44 c4 be ab a2 00 bf 92 8b 32 bc
       -0.32864395 -0.383337 -0.5024821 -0.010897534
0000c0 f5 4c 41 bd 2e b9 97 be 0e ff 1c 3e 10 32 3b 3f
       -0.047192533 -0.29633468 0.1533167 0.73123264
0000d0 9d e0 5e 3e a9 ab 32 bf 98 11 22 3f 55 32 8e 3e
       0.2176537 -0.6979318 0.63308096 0.27772775
0000e0 0e 6c 86 3d 37 bd 85 3c 7e d6 5f 3d b2 0f e0 be
       0.065635785 0.016325576 0.054647915 -0.43761975
0000f0 7d 45 a8 3e 48 c2 60 3e fc 25 a8 bd 63 e0 55 3f
       0.32865515 0.21949112 -0.0821037 0.8354551

encoder.1.running_var f4 [64]
000000 b3 a7 8b 40 ad fb 6c 3f f1 f9 a6 40 27 bb 9e 3f
       4.364221 0.92571527 5.2180104 1.2400864
000010 b3 4c 30 40 6c fe 48 41 2f e5 ad 41 19 4d 7f 40
       2.7546813 12.562115 21.736906 3.9890807
000020 c9 71 3f 41 19 10 94 40 d2 f8 90 40 99 34 55 3f
       11.96528 4.626965 4.5303736 0.8328338
000030 c0 39 b8 3e 33 59 31 41 77 87 6a 40 b5 18 1f 40
       0.3598156 11.084277 3.664518 2.485883
000040 27 79 0a 40 0f 7b 7a 40 3a 3f 73 3f e3 2a f7 3e
       2.1636446 3.913761 0.9501835 0.48274907
000050 d0 7e 9b 3f da d1 8d 41 a0 26 09 40 6d fe 40 40
       1.2148075 17.727467 2.1429825 3.015529
000060 ef 18 22 40 60 ff 5d 40 70 65 7e 40 12 22 ae 40
       2.5327718 3.4687119 3.9749413 5.441659
000070 12 77 1f 3f 58 05 97 3e 0c 83 e6 3e 62 38 8c 40
       0.6229106 0.29496264 0.45021856 4.3818827
000080 7f ee 55 40 7d d0 d5 40 ea db 38 40 1d 32 dc 3e
       3.3426816 6.6817 2.8884225 0.43006983
000090 6f 49 31 40 04 a5 61 40 53 c9 ab 41 c2 a2 62 3f
       2.770107 3.5256968 21.473303 0.885296
0000a0 a3 0a 09 40 9b 00 29 40 46 30 bd 3e 60 74 69 3f
       2.1412742 2.640662 0.36950892 0.911932
0000b0 b5 0d 25 40 08 0e 6e 3f 22 8f 27 41 55 3c 81 40
       2.5789616 0.9299016 10.472445 4.0386147
0000c0 26 62 a7 3f 00 28 4c 3f ed 96 f7 41 7b b8 01 41
       1.3076828 0.79748535 30.948694 8.107539
0000d0 9b c2 f9 40 2a 2a 98 40 ba d1 95 3f 5a 88 00 40
       7.8050056 4.755147 1.1704628 2.0083222
0000e0 49 ac 02 41 1c 4a ee 3f 1f 1f 19 40 96 51 dd 40
       8.167062 1.8616366 2.3925245 6.916209
0000f0 79 e4 ec 40 5e 79 91 40 ea 26 42 40 6b 49 76 40
       7.4028897 4.5460653 3.0336251 3.848231

encoder.4.weight f4 [64, 64, 3, 3]
000000 3e b0 37 3d 85 ee 0d be ef ce 4f bf ba fa 37 3f
       0.044845812 -0.13860519 -0.8117513 0.71866953
000010 98 20 50 be 31 4f 35 bf 62 89 a6 3f 13 e8 23 3f
       -0.20324934 -0.7082396 1.3010676 0.6402599
000020 d5 ab 0d be 5a d7 30 bc 33 0f b8 3d 79 24 07 bf
       -0.1383508 -0.010793531 0.08987274 -0.5279003
000030 e7 b2 61 3f 99 81 4d 3e 6e a5 4c bf f2 ef f0 3e
       0.8816361 0.20068969 -0.79939926 0.47058064
000040 79 9b a1 3e b7 9f 2d 3e 06 8e 12 bf 74 54 b7 3d
       0.3156393 0.16955458 -0.5724796 0.08951655
000050 80 6c 0b bf b4 3f d7 3e ac e1 df bc c6 28 8a be
       -0.5446243 0.4204079 -0.027329288 -0.26984233
000060 6a 5c 0a 3f 72 fd 40 3f 6f c5 6c 3e 05 18 56 be
       0.5404726 0.75386727 0.2312219 -0.209076
000070 1c d2 e9 be f5 58 26 bf 30 bb 48 be dd 17 df 3d
       -0.45668113 -0.6497949 -0.19602656 0.108932234
000080 6b 9b 6e be 1c 8b 9c 3f c5 56 60 3f 8a 14 ec be
       -0.23301475 1.2229953 0.876324 -0.4610942
000090 54 a4 0c 3f dc 8d d4 be e5 80 20 bf 10 fd a0 3e
       0.54938245 -0.4151448 -0.6269668 0.3144307
0000a0 31 fc 39 3e ca 99 29 3f c2 14 18 bf 42 6a ad bd
       0.1816261 0.6625029 -0.59406674 -0.08467533
0000b0 4c e9 19 bd 03 4b df 3d 1a 14 b1 3e 90 1e ba bd
       -0.037576005 0.10902979 0.3458565 -0.090878606
0000c0 40 37 3f 3f 8d d3 80 3f 4d ff cc 3e 32 12 86 bf
       0.7469368 1.006456 0.4003853 -1.0474303
0000d0 9b 88 10 3e dd 62 27 3f 97 31 81 3e 6b 30 0d 3e
       0.14114611 0.6538523 0.25233147 0.13788001
0000e0 cf 0a 98 3e dc ee f6 be 02 63 af be 40 cb f8 bd
       0.29695746 -0.4822911 -0.34255224 -0.12148142
0000f0 6b a7 9b bf 4d cc 32 bf 0a f3 89 be 2d 5a 85 3e
       -1.2160467 -0.6984299 -0.26943237 0.2604536
000100 be 45 38 3f 45 be 8b 3e ae 32 bb bc e2 eb 47 3e
       0.7198142 0.27293602 -0.022851314 0.19523576
000110 77 59 08 3e dc 26 be 3c ae b0 10 3d 2f 27 a6 bc
       0.13315378 0.023211889 0.035324745 -0.020282356
000120 a5 aa 1c bf 88 d4 1a bd 3e 75 ce 3e 95 9a c8 3d
       -0.6119788 -0.03780034 0.40323824 0.09795109
000130 5f 2c 1a 3e 9e da cc bd b6 50 31 3d 4c b8 1b 3f
       0.15055989 -0.100026354 0.043289863 0.6082809
000140 af da b4 bd e1 fe b9 bd 80 93 44 be 29 5b 8d 3d
       -0.08830773 -0.090818174 -0.19196892 0.06902153
000150 35 01 fb 3d 85 be 80 3d 89 2a 74 3e f8 d7 ef be
       0.122560896 0.06286339 0.23844351 -0.4684446
000160 f4 f7 b7 bd fe 46 02 3d 2c 96 98 3f c0 c7 13 bd
       -0.0898284 0.031805985 1.1920829 -0.03607917
000170 ff 24 80 bf ee 2b 7e be 76 e2 20 3e 33 5b 18 be
       -1.001129 -0.24821445 0.15711388 -0.1487854
000180 1a 1b e6 be 33 ff a1 bd c6 c5 39 3e 84 dc bd 3e
       -0.44942552 -0.079100035 0.18141851 0.37082303
000190 ba 99 d0 be 1a 1e db be c0 69 68 3e 5b e3 7c bf
       -0.40742284 -0.42796403 0.2269659 -0.98784417
0001a0 f8 68 a2 be 43 40 22 3f 60 8f 6c bf 2f 5d 41 3e
       -0.3172071 0.63379306 -0.9240627 0.18883203
0001b0 b5 38 1f 3e 10 a0 a6 be b6 c7 78 3e 49 42 9a 3c
       0.15548976 -0.32543993 0.24294934 0.018830435
0001c0 ef 28 c6 3e b1 b3 f1 be e0 ec 97 be 8a d6 81 be
       0.38703105 -0.47207406 -0.2967291 -0.25358993
0001d0 42 38 7c 3e 3e d9 9c 3c 38 ff cc 3e 1d d4 5d 3e
       0.24630836 0.019146558 0.40038466 0.21662946
0001e0 7e d7 37 3e cd 0d a0 3e 08 b5 41 3d ad 7d 26 bf
       0.17953297 0.3126053 0.047291785 -0.65035516
0001f0 11 c0 8e be b2 1c b7 bd f1 f1 d2 be 07 88 45 be
       -0.2788091 -0.0894102 -0.41200212 -0.19290172
000200 77 7d 8d 3e 0f c5 51 bf 63 55 66 be a6 3b 3b bf
       0.27634785 -0.8194131 -0.2249351 -0.7313789
000210 c9 1e 11 bf dd 7d c4 be 6c 92 a5 3d d4 bf 7d 3e
       -0.566876 -0.38377276 0.080845684 0.24780208
000220 9a 86 2d 3e ea 21 38 be 30 fc 4e 3e 63 5e c1 3e
       0.16945878 -0.17981687 0.2021339 0.37767324
000230 95 06 50 be c1 42 31 bf c9 50 46 3e 35 d3 92 3c
       -0.20315011 -0.69242483 0.19366755 0.017922977
000240 ab b8 2c 3e 6e f5 b2 3a 39 b4 01 bf eb ee e2 3e
       0.1686732 0.0013653466 -0.5066562 0.44322905
000250 1f ea a1 be 62 bc 9f bd e4 42 37 3e b0 64 28 be
       -0.31623933 -0.07799603 0.1789661 -0.16444659
000260 25 72 23 be bb 17 ed be 4a 79 e2 be e4 a9 37 3e
       -0.15961511 -0.46307167 -0.4423316 0.17935902
000270 a4 74 38 3f fa dc 1d bf 48 3a 1b bf 3f 6a 7c 3f
       0.7205298 -0.6166531 -0.60635805 0.9859962
000280 d8 76 0a 3f 8c 8f bf 3d 1a 3a 62 3f b9 b7 45 bf
       0.5408759 0.09353551 0.88369906 -0.77233464
000290 17 6d f7 be 18 ef 40 3f 17 db 8d be 09 e6 c4 3d
       -0.48325416 0.7536483 -0.27706215 0.09614188
0002a0 de 2b ee 3e 76 41 53 3e 8c 08 6f be 86 94 04 bd
       0.46517843 0.2063044 -0.23343104 -0.032368205
0002b0 0c 71 82 be dd a2 b5 3d 1f 14 8c be 8b 94 76 3e
       -0.25476873 0.08868954 -0.273591 0.24080102
0002c0 4c 3e 48 be e6 92 f1 3d 38 fc 20 3e 66 82 7e be
       -0.19555014 0.11795597 0.15721214 -0.2485443
0002d0 e9 9e 1f 3f 89 d0 71 bd 0f 14 90 3e b5 c6 d8 3c
       0.6235185 -0.059036765 0.28140303 0.026461938
0002e0 eb 42 d4 be c9 2c 9a bc e7 24 7f 3e c8 61 f3 3e
       -0.41457304 -0.018820183 0.24916421 0.4753554
0002f0 1d 64 0b bf c8 49 41 3d 03 2b 9a be ec 62 a4 be
       -0.54449636 0.047189504 -0.3011094 -0.3210672
000300 24 e5 0c 3f d2 03 6d 3e 60 f6 f8 3d d8 cd 99 bd
       0.5503714 0.23145989 0.12156367 -0.07509965
000310 41 93 13 3f 45 36 7c 3d a5 22 1f 3b d0 68 32 bf
       0.57646567 0.061575193 0.0024282124 -0.6969118
000320 aa 8d 1d be 51 61 ec 3e 67 35 3e bd 04 77 5b bf
       -0.15386072 0.46167997 -0.046437647 -0.8572848
000330 e1 32 f5 3e d2 38 65 be fc 17 36 bf 55 ab 42 be
       0.4789038 -0.22384956 -0.7113035 -0.1901067
000340 d7 2c 2e bf b9 57 87 be 7c 94 0d 3f a1 d2 1e bf
       -0.6803717 -0.26434115 0.55304694 -0.62040144
000350 1d b8 04 bf ed 0e 90 3f 30 2e e3 3e 33 12 11 3f
       -0.51843435 1.1254555 0.44371176 0.56668395
000360 5b 1f 17 bd 8e 61 f6 be 74 de d1 3d f9 98 a9 3d
       -0.036895137 -0.48121303 0.10247508 0.0828113
000370 a4 01 8e bf bf 5d a7 bf e5 66 95 3f ec 8d 0d 3e
       -1.1094251 -1.3075484 1.1672026 0.1382367
000380 48 61 00 bf 73 df 26 3d fe 2e 93 bd 85 c0 bc be
       -0.5014844 0.04074044 -0.071866974 -0.3686563
000390 82 49 ae 3d 96 8c 47 3e 2e 79 17 be 10 bc 51 3e
       0.08510114 0.19487223 -0.1479232 0.20481896
0003a0 6c 44 20 3e aa b0 97 3e 0f 13 a4 3d db 46 7c 3f
       0.15651101 0.2962697 0.08011448 0.98545617
0003b0 3e 71 32 3f 93 59 4d bf 63 d1 08 bf 47 ce 3e bf
       0.69704044 -0.80214804 -0.534445 -0.74533504
0003c0 fa 6f bb bf c6 00 eb 3d 5f 9e 1b 3c 66 97 ea 3e
       -1.4643548 0.11474757 0.009498208 0.45818633
0003d0 b0 cd b9 be 57 b3 a2 bd ec c6 48 3f d7 e8 03 3e
       -0.3628974 -0.079443626 0.7842853 0.1288179
0003e0 99 03 b4 3e 46 09 ee be 83 ab 2c 3b a9 13 9b 3e
       0.35158995 -0.4649145 0.0026347346 0.30288437
0003f0 d6 33 b8 be 5e 4f 1f 3f 6b 42 a3 3e fb e5 21 bf
       -0.35977048 0.6223048 0.3188661 -0.6324155

encoder.4.bias f4 [64]
000000 48 64 5e bd 2b d3 df 3c 0f 47 44 3d 2a 77 39 bd
       -0.054294854 0.027322372 0.04791933 -0.04527966
000010 4e 9b f0 bd 25 ba cd bd fa 5c 67 3d 36 e4 d8 bd
       -0.11748372 -0.1004527 0.056485154 -0.10590403
000020 9d 98 88 3d 38 25 ee bd 11 49 07 bc e0 6b b5 3d
       0.06669734 -0.11628193 -0.0082571665 0.08858466
000030 eb 53 c8 3c a6 13 a6 3b ce a6 6e 3c 7b cc 09 3e
       0.024454078 0.0050682602 0.0145661365 0.1345691
000040 28 66 24 3d 14 3d ca bc ae 30 ae bc 0e c0 98 bd
       0.040136486 -0.024687327 -0.021263447 -0.074585065
000050 60 0b 5a 3c 2f c6 8a 3c 3d df 10 3e 4c 21 0e 3e
       0.013308376 0.016940204 0.14147659 0.13879889
000060 84 ac 10 3e fd 5c 24 3e b9 13 e1 bb 4a fa cf 3c
       0.1412831 0.16051097 -0.006868806 0.025387902
000070 a9 a1 97 3d b3 0c 23 bd 5e 5a 24 bd d0 2c a5 bd
       0.07403881 -0.039807033 -0.040125243 -0.08065188
000080 3c a8 14 3e c8 12 f3 bd a7 66 9b bd 94 6b c1 bb
       0.14517301 -0.118688166 -0.07587939 -0.005902717
000090 30 2b 76 3d 53 5d 13 3c 48 be 4d 3a cc c9 6b bc
       0.06009978 0.008994418 0.00078484835 -0.014391374
0000a0 d1 3f c7 bb d8 9c 17 3e e3 cd d8 bc b8 9c df 3d
       -0.0060806056 0.14805925 -0.026465362 0.109185636
0000b0 12 53 de bc ec 37 4a bd 86 8a c1 bd 7c fe 13 3e
       -0.02713922 -0.049369738 -0.094502494 0.14452547
0000c0 12 29 82 3d a8 5f c6 3d 22 50 11 3d 48 d8 2e 3a
       0.0635549 0.09686214 0.03547681 0.00066698017
0000d0 ad 45 a7 bd 00 e2 05 3e 65 3a 8e 3d 9a 2c bd bd
       -0.081675865 0.13074493 0.069447316 -0.09237023
0000e0 9e d7 58 3d d1 52 b2 3d 79 99 6b bb 63 88 8c 3c
       0.052940004 0.08707202 -0.003594963 0.017154878
0000f0 8f fd 47 3e 25 a7 83 3d 3f 3f 87 3d e4 3d 88 bd
       0.19530319 0.06428365 0.0660386 -0.0665243

encoder.5.weight f4 [64]
000000 9f 48 b1 3f 03 cb 45 3f c2 4a 98 3f 4d a4 80 3f
       1.3850287 0.77262896 1.1897814 1.0050141
000010 da 01 75 3f 1d 21 98 3f df 43 84 3f ce 34 90 3f
       0.9570595 1.1885105 1.0333213 1.1266115
000020 06 5a 91 3f 05 9b b3 3f 04 db 91 3f b2 7b 80 3f
       1.1355598 1.4031683 1.1394963 1.0037749
000030 29 67 95 3f 9f af 95 3f cc 2a 94 3f 48 9c 8a 3f
       1.1672107 1.169422 1.157556 1.0828943
000040 c5 9c 89 3f ce eb 62 3f aa f8 a3 3f 1f 64 8c 3f
       1.0750967 0.8864106 1.2810261 1.0968055
000050 02 26 8a 3f 80 38 61 3f 7f 9c 97 3f b0 70 8d 3f
       1.0792849 0.8797684 1.1844634 1.1050014
000060 52 1a 9d 3f fc 80 9a 3f 57 41 aa 3f ab 4d 9f 3f
       1.2273657 1.2070613 1.330119 1.2445577
000070 03 d2 62 3f 24 ac a4 3f 04 f7 8d 3f 6a 2d b0 3f
       0.886017 1.2865033 1.1091008 1.3763859
000080 61 34 b7 3f 6b 38 95 3f a3 d7 67 3f 19 13 a6 3f
       1.431286 1.1657842 0.9056341 1.2974578
000090 54 9f 70 3f de c2 7c 3f 27 3a 8e 3f 9e c7 5c 3f
       0.93993115 0.98734844 1.1111497 0.8624209
0000a0 63 bf 9d 3f a2 6d a0 3f 59 84 9d 3f 79 4f 93 3f
       1.2324032 1.2533457 1.2306014 1.1508628
0000b0 c6 98 75 3f f3 dd 4b 3f 6f bb 9a 3f b1 22 a0 3f
       0.9593624 0.7963554 1.208845 1.2510587
0000c0 45 9c 8b 3f 60 90 7c 3f 98 17 9c 3f f9 25 92 3f
       1.0907065 0.986578 1.21947 1.1417838
0000d0 dd dd 94 3f 04 14 90 3f cf 3a 2b 3f 3d 5a 9f 3f
       1.1630207 1.1256108 0.6688661 1.2449414
0000e0 90 3c a9 3f 86 f6 84 3f 94 06 a2 3f 07 3b 24 3f
       1.3221607 1.0387733 1.2658257 0.6415257
0000f0 56 a1 93 3f a1 62 88 3f ea cc 94 3f 5c 15 86 3f
       1.1533611 1.0655099 1.1625035 1.0475268

encoder.5.bias f4 [64]
000000 6f f8 3f bf a1 48 2b bf 81 93 31 bf f0 d7 0d bf
       -0.74988455 -0.669077 -0.693657 -0.5540762
000010 af 19 0c bf 12 f9 b9 be cf 10 96 be 9c 9f 33 bf
       -0.5472669 -0.36322838 -0.293097 -0.7016542
000020 7c 32 30 be 9b c2 f9 be b0 e8 be be 58 7d e0 be
       -0.17206758 -0.48781285 -0.372869 -0.4384563
000030 23 bc 34 bf f9 0f 29 bf 4f 7d ee be 7c 3b 48 bf
       -0.70599574 -0.6604 -0.46579978 -0.78215766
000040 e7 ca 2d bf 89 2e b3 be 5f 10 2e bf 6b c1 db bc
       -0.6788773 -0.3499644 -0.6799373 -0.026825627
000050 86 35 9f be 7a 77 4b bf 90 47 ed be 9c a5 58 bf
       -0.31095523 -0.7947918 -0.4634366 -0.846277
000060 13 e1 14 bf ec d9 d5 be 8f 02 1f bf fe 9e 47 bf
       -0.58155936 -0.41767824 -0.6211328 -0.7797698
000070 f0 0b 55 be 06 cf 15 bf 83 c2 cf be 9f 82 2d bf
       -0.20805335 -0.5851902 -0.40578088 -0.67777437
000080 0c 93 4e bf 6b 9b 15 bf ea f4 2d bf 4d db ba be
       -0.80693126 -0.58440274 -0.67951834 -0.36495438
000090 a7 5c 7b be cf f5 c9 be c7 02 de bd 97 b2 2f bf
       -0.24547063 -0.3944535 -0.108403735 -0.6863188
0000a0 79 b0 16 bf 70 dd 8e be a3 f2 a8 be f1 ce 1c bf
       -0.58863026 -0.27903318 -0.32997617 -0.6125327
0000b0 03 f4 0b 3d 0e cb 62 be df cf 01 bf 75 29 83 bf
       0.034168255 -0.22147772 -0.5070781 -1.0247027
0000c0 23 e8 95 be cf 79 97 be 05 88 38 bf 53 3a 00 bf
       -0.2927867 -0.2958512 -0.7208255 -0.50088996
0000d0 d6 4d 8f bd b9 aa 3f bf 4d d5 fa be 15 ee d9 be
       -0.06997268 -0.7486988 -0.4899086 -0.42564455
0000e0 14 ec 2a bf 2e 1b 1e bf c4 20 06 bf 1e ed 96 be
       -0.66766477 -0.6176022 -0.52393746 -0.2947778
0000f0 a8 e9 88 be 03 96 1d bf cc df 22 bf 63 bf ea bd
       -0.26740766 -0.61557025 -0.63622737 -0.11462285

encoder.5.running_mean f4 [64]
000000 af 83 31 c1 9d 36 0a c0 c3 e0 04 c2 80 5c 06 c1
       -11.094649 -2.1595833 -33.219494 -8.397583
000010 de 3c 19 c0 47 2c a4 c1 0a f0 56 c1 0a 92 fd c1
       -2.39434 -20.52162 -13.433603 -31.696308
000020 4a 03 60 c1 44 17 ce c1 3a bd ce c1 f8 10 b3 c1
       -14.000803 -25.76136 -25.842396 -22.383286
000030 85 cf 26 c1 25 09 a4 c0 2c 18 85 c1 26 97 33 c1
       -10.425664 -5.1261163 -16.636803 -11.224401
000040 00 6b 3c c1 81 60 ab c0 ce 41 24 c1 37 dc b9 c1
       -11.776123 -5.3555303 -10.266066 -23.232527
000050 44 f6 92 c1 d5 85 94 c0 49 c6 30 c1 d3 e0 35 c1
       -18.370247 -4.641337 -11.048409 -11.367389
000060 7d 1c 8f c1 5b ee 4d c1 9b e1 42 c1 52 5d 58 c1
       -17.88891 -12.870692 -12.180079 -13.522783
000070 48 a8 b9 c0 02 07 f8 c1 0d 36 98 c1 ed 65 69 c1
       -5.801792 -31.003422 -19.026392 -14.587384
000080 21 46 5a c1 00 37 59 c1 4b 00 05 c1 93 4c 63 c1
       -13.642121 -13.575928 -8.312572 -14.206195
000090 e4 b6 93 c1 62 35 5c c1 5f 87 62 c1 ae c3 42 3f
       -18.464302 -13.763033 -14.15805 0.76079834
0000a0 eb 44 50 c1 fb 6f b5 c1 97 cc 5f c1 a4 68 10 c1
       -13.016826 -22.679678 -13.987449 -9.025547
0000b0 c2 82 6c c1 11 e2 4b c1 5b a9 80 c1 96 8d 95 c1
       -14.781923 -12.742692 -16.082693 -18.694134
0000c0 48 89 ea c1 c5 93 9b c1 45 8f 80 c1 24 ea f9 c0
       -29.317032 -19.447153 -16.069956 -7.8098316
0000d0 a0 0d 1b c1 36 3b 33 c1 0d f7 90 3f 1d cf 16 c1
       -9.690826 -11.201956 1.1325394 -9.425565
0000e0 01 a8 a1 c1 24 52 e1 c0 54 0a 49 c1 6f ad 93 41
       -20.207033 -7.041277 -12.5650215 18.459684
0000f0 32 61 54 c1 76 07 61 c1 64 b9 df c1 7b a2 b6 c1
       -13.273729 -14.0643215 -27.965523 -22.829336

encoder.5.running_var f4 [64]
000000 10 dc 96 43 0d 83 09 43 5a e3 f4 43 d3 08 47 43
       301.71924 137.51192 489.77618 199.03447
000010 34 dd 73 43 6f 7b d3 43 10 d5 78 43 33 4e dc 43
       243.86407 422.96432 248.83228 440.61093
000020 a7 ef ba 43 5c fd de 43 d2 12 d9 43 f2 96 e4 43
       373.87228 445.97937 434.14703 457.17926
000030 ed 05 4d 43 84 3f 35 43 be ae c6 43 6a b9 17 43
       205.02315 181.24811 397.36517 151.72427
000040 2d fc 28 43 91 6d 3a 43 3e a4 e0 43 7b 99 a2 43
       168.98506 186.428 449.28314 325.19907
000050 eb b1 81 43 a2 fe 22 43 b5 4e e7 42 06 dc 78 43
       259.38998 162.99466 115.653725 248.85947
000060 72 a4 e4 43 56 a8 ae 43 cc ab 8d 43 2a dc 72 43
       457.28473 349.31512 283.34216 242.86002
000070 45 f5 d5 42 57 c3 04 44 c6 29 8a 43 61 15 84 43
       106.97904 531.0522 276.32635 264.16702
000080 9a cd 43 43 9b 66 a7 43 8d e9 4e 43 19 d2 92 43
       195.80313 334.8016 206.91231 293.6414
000090 50 a7 86 43 90 b9 98 43 e0 ec ef 43 88 c5 11 43
       269.30713 305.4497 479.8506 145.7716
0000a0 7b 22 97 43 42 d1 e9 43 34 3b e2 43 a3 b7 1a 43
       302.26938 467.63483 452.46252 154.71733
0000b0 39 06 85 43 c2 b8 33 43 b1 7b ca 43 fa 49 52 43
       266.0486 179.72171 404.96634 210.28897
0000c0 3c cd e2 43 4b 7c df 43 d4 6a aa 43 e8 36 11 43
       453.6034 446.97104 340.8346 145.21448
0000d0 28 b1 6e 43 63 cb a3 43 2d 68 48 43 c5 8e 0a 43
       238.69202 327.58896 200.40694 138.5577
0000e0 c8 63 9f 43 f7 bc 88 43 44 9b 8e 43 14 06 80 43
       318.77954 273.4763 285.213 256.0475
0000f0 2f 0a 92 43 b6 7e 2b 43 44 ca d9 43 11 c8 d6 43
       292.07956 171.49496 435.5802 429.56302

encoder.8.weight f4 [64, 64, 3, 3]
000000 46 ce 96 3e ba 4d 99 3f a8 8b 25 3f 78 b6 c7 bc
       0.2945425 1.1976845 0.64666224 -0.024379
000010 0f 1a c0 3e 74 5e f7 be 5f 85 fa 3d 91 71 e2 3d
       0.3751988 -0.4831425 0.1223247 0.11056817
000020 6e ff 1b bf 9d 16 aa 3e f5 2a 3e 3e dc 20 4a bf
       -0.6093663 0.33220378 0.18571074 -0.7895639
000030 97 92 a4 3e 3b 4a 15 3e c9 ec 95 3f 93 d8 d3 be
       0.3214309 0.14579098 1.1712886 -0.4137617
000040 c2 6f 56 be 13 08 59 3c ff ba a6 be c8 87 e0 be
       -0.2094107 0.013246554 -0.32564542 -0.43853593
000050 1c 20 74 bf 40 86 de 3e af 28 89 3f ea 9c 4b bc
       -0.95361495 0.434618 1.0715541 -0.012427548
000060 d9 b4 df 3e 12 2f 30 bd 7a 7f c3 3d 08 17 82 bd
       0.43692663 -0.04301364 0.095457986 -0.06352049
000070 34 2d bd be 72 9b 28 be 69 14 25 bf 74 a1 1a bf
       -0.3694855 -0.16465548 -0.6448427 -0.6040261
000080 4a ed 1f 3d 2c 13 24 bf d2 ff 30 bf 79 b4 a0 bf
       0.039044656 -0.64091754 -0.6914035 -1.2555076
000090 db 9a 4e bf 19 56 88 3f 37 97 04 bf 78 bc a5 3e
       -0.8070504 1.0651275 -0.51793236 0.32370353
0000a0 8c c5 62 3e ab c5 a5 3d 40 7c c3 3d 81 a4 12 bf
       0.2214567 0.08094343 0.09545183 -0.57282263
0000b0 5d 35 25 bf 49 45 01 3f b3 43 9b bd ad ec 14 3e
       -0.6453455 0.50496346 -0.07581272 0.1454341
0000c0 44 f9 71 3d 2d 2f d9 be fe 36 9f be 49 a0 0d be
       0.05907561 -0.42418805 -0.31096643 -0.13830675
0000d0 9f 3b 30 bf 0e 0b 1e bf d4 3f ba be 9e 02 eb 3e
       -0.68840975 -0.6173562 -0.36376822 0.45900434
0000e0 ce f7 87 bf d3 2a 4d 3f cc dc 65 be a5 2b 5c bf
       -1.0622499 0.8014347 -0.22447509 -0.86004096
0000f0 ae 2c a4 bf c4 34 fc 3d 10 22 9b be a6 ec 5a 3c
       -1.2826135 0.12314752 -0.30299425 0.013362085
000100 82 33 c6 be 17 8d 0e 3f 2d 64 16 be 73 56 da be
       -0.38711172 0.55684036 -0.14686652 -0.4264408
000110 b2 70 e5 be 9b 64 02 3f 00 62 8e 3e 0e fa 8f bf
       -0.44812542 0.5093476 0.27809143 -1.1248186
000120 8c 0b 0a 3d 1c ef ee 3e 65 4b d6 3e 55 6f eb bd
       0.03370242 0.466668 0.41854396 -0.11495844
000130 19 1a 53 3e 14 db 07 bf 5f 43 23 be b0 5c d5 be
       0.20615424 -0.5306866 -0.15943669 -0.41672277
000140 60 19 64 be e4 23 37 3e 58 a0 a8 3e da 59 30 3f
       -0.22275305 0.17884785 0.32934833 0.688871
000150 5d fd ec 3e 26 c4 58 3f 97 d9 b5 be 1b 21 54 bf
       0.4628705 0.846743 -0.3551757 -0.82863015
000160 af 13 30 3e f0 ca bd 3e 3a 8c 0f be aa e5 48 be
       0.17195009 0.37068892 -0.14018336 -0.1961886
000170 be c1 dc 3d 5f f3 3d 3f 67 d6 e4 bd d3 af 04 bf
       0.10779141 0.7419948 -0.111737065 -0.51830786
000180 1d b4 e2 bd 81 7d b2 be 7f c3 12 3d 1f 45 2e bf
       -0.1106951 -0.34861377 0.03583097 -0.6807422
000190 7d ba 82 bf ff 29 9c be c2 66 99 3e 14 b0 f5 3e
       -1.0213162 -0.3050079 0.2996121 0.479859
0001a0 1c 99 3b bf 6d c0 03 3f 91 6a d8 be 03 2e 32 3d
       -0.732805 0.51465493 -0.42268804 0.04350091
0001b0 6b 3f bd be bf 0f 0d bf 7a c9 49 be e2 99 ba bd
       -0.36962447 -0.5510215 -0.19705763 -0.09111382
0001c0 06 0a 24 3e 2d 4f 14 3f df ae 62 3d 94 1c 19 3e
       0.16019449 0.5793331 0.05534255 0.14952308
0001d0 cc 99 4d be 55 ee 64 bf e3 8e 21 3e 99 69 29 3c
       -0.200782 -0.89426166 0.15777163 0.010340118
0001e0 6c 2b 38 3d be 46 01 be 40 f1 e6 bd 0e 12 6b be
       0.044963285 -0.12624642 -0.112764835 -0.22956106
0001f0 ce 61 d6 3e 80 6d 15 3e 5a 32 a3 be d7 e9 4f 3e
       0.41871494 0.14592552 -0.31874353 0.20304047
000200 1f 28 97 bd e0 38 07 be eb 88 02 bf e8 f7 17 bf
       -0.07380699 -0.1320529 -0.5099017 -0.5936265
000210 04 d8 5e be 16 c4 84 be 8b 23 e8 3b f8 80 ea be
       -0.21762091 -0.25930852 0.007084315 -0.4580152
000220 a9 15 4e be ab c8 37 bf ba 57 b2 3e fd 6e 9d 3e
       -0.2012545 -0.7179057 0.34832555 0.3074874
000230 7a fd ef 3e 89 41 31 be a2 82 b9 3d 29 32 04 be
       0.46873075 -0.17310156 0.09058119 -0.1290976
000240 e3 bf 8c bf dd e1 1d bf 1d 9e ef bd ab f0 d0 bd
       -1.0996059 -0.61672765 -0.117000796 -0.10202154
000250 46 03 22 3f 9b d9 9c be 02 c5 81 3d 23 c5 41 3f
       0.63286245 -0.3063477 0.063364044 0.7569143
000260 3c 6f 0b 3f dc 0d 42 bf 9a 7d bc be fd 2f 10 bf
       0.54466605 -0.758024 -0.36814576 -0.56323224
000270 1b 16 1b bf b4 c0 06 be 04 93 82 3e 66 1d 35 bf
       -0.60580605 -0.13159448 0.2550279 -0.70747983
000280 21 45 39 be 5c 31 be bd a9 8d a6 3d a2 71 c6 bd
       -0.18092777 -0.09286758 0.08132488 -0.096896425
000290 1e 37 f1 bd 14 99 9a 3d 4d 25 23 bf 58 58 12 be
       -0.11778091 0.075487286 -0.6372879 -0.14291513
0002a0 42 1c 1f bf 3d 50 d0 bd d0 2e 95 3e 51 da 2d bf
       -0.62152493 -0.10171554 0.29137278 -0.6791125
0002b0 b1 76 85 3e 77 00 6a 3f 65 4b 93 bf aa aa 7c bd
       0.26067117 0.9140696 -1.1507384 -0.061686195
0002c0 19 0e 09 3d cb 1f f0 3e e6 0a c6 3d 66 11 26 bf
       0.03346071 0.46899256 0.096700475 -0.648703
0002d0 52 40 2d be ed bf b5 3e 85 c7 8d be 71 02 63 bf
       -0.16919068 0.3549799 -0.27691284 -0.886756
0002e0 8c 8b 89 be d8 0f f6 3e 77 c1 e1 3d 12 a0 ad bd
       -0.26864278 0.48058963 0.110232286 -0.084777966
0002f0 79 38 1b bf ec 17 ee 3e cf 89 e8 be 7c 81 9d 3e
       -0.60633045 0.46502626 -0.4541764 0.3076285
000300 e5 d8 ed 3e 01 3a 21 3e 09 71 8d 3d ca ce 2c 3f
       0.4645454 0.15744783 0.06906325 0.67503035
000310 c6 ed 3b 3e 75 5c b4 3e 18 9e 68 3f c4 28 48 3f
       0.18352422 0.3522679 0.9086623 0.78187203
000320 bf 52 3b bf e5 02 0c be 3f b9 9a be 3e b3 4f bf
       -0.73173136 -0.13672979 -0.30219457 -0.81132877
000330 da 33 a3 be 96 2f 27 3f fd 34 03 bf b3 64 11 bf
       -0.31875497 0.65306985 -0.5125273 -0.5679428
000340 15 99 32 be 95 6d ca 3e cf 06 87 3f c7 92 90 be
       -0.17441209 0.3953673 1.0548953 -0.28236982
000350 f4 a6 86 3e 96 43 96 be 8e 0b 97 bf 3a 88 b6 be
       0.2629925 -0.2934844 -1.1800401 -0.35650808
000360 5e aa 9f 3e eb 22 37 bd 2f 4a 04 3e 56 d9 98 3e
       0.31184667 -0.044711035 0.12918924 0.29853314
000370 bf 8f 1c bf 03 6e 1e be 23 64 82 3e 58 dd 46 3e
       -0.6115684 -0.15471654 0.25467023 0.19420373
000380 df 37 af bd c1 3a 35 3f dd 4b 98 3d 5a 35 1a 3e
       -0.085555784 0.70792776 0.07436345 0.15059415
000390 6e 99 15 be cb 96 8f bf da 9d e1 be 2c a1 9b be
       -0.1460931 -1.1217893 -0.44065744 -0.30396402
0003a0 ac 4d 61 3e b1 c9 42 bf 83 8b 89 bf 3b 20 b4 be
       0.22002286 -0.76089007 -1.0745701 -0.3518084
0003b0 0c 8e fb bd a5 d3 ba 3e e8 75 24 3e 40 8e 56 3d
       -0.12282953 0.36489597 0.16060603 0.052381754
0003c0 b1 e9 48 be ba 4a fa 3e 03 06 2c be 9b 3c 4e 3e
       -0.19620396 0.48885137 -0.16799168 0.20140307
0003d0 34 08 1d 3f 8f d1 e8 3e a6 57 d4 be 67 79 5f 3e
       0.6134064 0.4547238 -0.4147312 0.21823655
0003e0 eb 1a 06 3d 94 e0 37 be c8 dc 40 bf b6 b7 89 be
       0.032740515 -0.17956764 -0.75336885 -0.26897973
0003f0 8b 67 00 3f c8 9c e6 bd 74 ef ba be 51 4a 1a 3d
       0.50157994 -0.112603724 -0.36510813 0.03766853

encoder.8.bias f4 [64]
000000 7f 37 37 3e f9 0c d2 3d 19 e9 db 3e f7 c3 6b 3c
       0.17892264 0.102563806 0.42951277 0.014389983
000010 6e cb df 3d ec 7e 99 3e ff ef df bb dc 2f 3e be
       0.10927473 0.29979646 -0.0068340297 -0.18572944
000020 95 00 1a 3e d1 66 5b 3e 82 14 3a bd 58 61 b3 3e
       0.15039285 0.2142594 -0.045429714 0.35035205
000030 11 e8 36 3d 76 b4 bc 3e 7d b8 14 3d 9c f7 c9 3c
       0.04465491 0.3685643 0.036308754 0.024654202
000040 82 2e da bd 39 a2 80 3e 7c fa 1d bb f1 4e d4 bd
       -0.10653402 0.25123766 -0.00241056 -0.103666194
000050 aa 71 8a bc 51 1e a5 3d 97 54 29 3e 66 2c 15 3e
       -0.016899902 0.08062423 0.16536175 0.14567718
000060 a5 36 e4 3d 74 e7 a5 3e 11 5e 71 3e fd 42 69 3e
       0.11143235 0.32403147 0.2357104 0.2277946
000070 88 5c ba 3e 71 5c ef 3d b7 a7 c4 bc cc 38 c0 39
       0.3639872 0.11687554 -0.024005754 0.0003666341
000080 e0 00 b6 3d b3 d0 97 3d d1 23 5e 3e 75 be 17 be
       0.08886886 0.07412853 0.2169335 -0.14818747
000090 ed a8 3b 3e fc ff 57 be 11 8a b4 bd 30 1c cb bd
       0.18326159 -0.21093744 -0.088153966 -0.09917486
0000a0 e8 4c 41 3e e5 24 6b bc e0 a1 25 3d bb e4 1e 3c
       0.18876994 -0.014352058 0.04043758 0.009698088
0000b0 e4 af db 3c 94 d8 66 3e a8 d2 99 3e 06 13 a0 3d
       0.02681727 0.22543555 0.3004353 0.078161284
0000c0 a3 32 2a 3e 81 98 88 3a 8d 8d a2 3c 3c 5c 6c 3d
       0.16620879 0.0010421426 0.019842887 0.05770515
0000d0 1f 52 a1 bd a0 f9 2d 3e 68 01 80 bd f7 9d ac 3e
       -0.078769915 0.16989756 -0.06250268 0.33714268
0000e0 63 0d 3d 3d 4c b4 15 3e 2d ba 7a 3d ec 06 9c 3e
       0.046155345 0.14619559 0.061212707 0.3047403
0000f0 70 e0 17 3e 22 63 cc 3c 26 dd e2 bd a5 2f df 3d
       0.1483171 0.024949614 -0.11077337 0.10897759

encoder.9.weight f4 [64]
000000 4b ce 69 3f 10 4a 81 3f a0 e7 9d 3f a8 2a 61 3f
       0.91330403 1.0100727 1.2336311 0.87955713
000010 73 0e 7d 3f 15 87 88 3f 36 0e 55 3f 1d c8 89 3f
       0.9885017 1.0666224 0.8322481 1.0764195
000020 4b 64 7b 3f 6d b0 7e 3f c0 40 5e 3f ae d3 7e 3f
       0.9819991 0.99487954 0.8681755 0.9954175
000030 d1 05 71 3f 54 96 76 3f c4 3b 66 3f ea 8d 63 3f
       0.941495 0.9632313 0.89934945 0.8888842
000040 13 ad 55 3f 47 8c 3c 3f a2 0e 7d 3f 56 d1 83 3f
       0.83467215 0.73651546 0.9885045 1.0298259
000050 14 7b 99 3f b6 07 59 3f 9c 98 27 3f de 7b 64 3f
       1.1990685 0.8477739 0.6546724 0.89251506
000060 67 63 81 3f a8 89 a1 3f 8a 0d f3 3e 18 81 8c 3f
       1.010846 1.2620134 0.47471267 1.0976896
000070 1f b2 66 3f 20 f2 7e 3f d2 42 2a 3f dc 65 4f 3f
       0.9011554 0.99588203 0.6650821 0.810148
000080 7d b2 8c 3f 65 45 40 3f fb 91 3c 3f b9 9f 36 3f
       1.099197 0.7510589 0.7366025 0.7133747
000090 a5 12 59 3f 0e 1e 8e 3f 36 bf 76 3f f4 04 4e 3f
       0.84794074 1.1102922 0.96385515 0.8047631
0000a0 d8 c3 47 3f d3 8d 36 3f 82 35 7f 3f 3e f3 7b 3f
       0.7803321 0.71310157 0.9969102 0.98418033
0000b0 f6 52 17 3f fa 80 33 3f 7c 74 71 3f 72 1a 8f 3f
       0.59110963 0.7011868 0.94318366 1.1179945
0000c0 3f 90 85 3f 44 d8 80 3f b2 ad 49 3f 44 5d 53 3f
       1.0434645 1.0065999 0.78780663 0.8256419
0000d0 ac 03 37 3f 4b f4 77 3f 81 0e 64 3f 4c eb 33 3f
       0.7148998 0.96857136 0.8908463 0.7028091
0000e0 15 a6 29 3f 91 46 61 3f a1 43 2a 3f 12 97 4d 3f
       0.66269046 0.879983 0.66509444 0.8030864
0000f0 71 de 4a 3f ac 5c 71 3f aa cf 63 3f 3a 69 75 3f
       0.7924567 0.9428203 0.88988745 0.9586369

encoder.9.bias f4 [64]
000000 7b 7b 57 bf 6f bd 53 bf c9 a1 aa bf b5 aa 47 bf
       -0.8417279 -0.8271093 -1.3330623 -0.77994853
000010 3a 46 93 bf b2 11 81 bf 63 a1 43 bf 56 19 8d bf
       -1.1505806 -1.0083525 -0.7641813 -1.1023357
000020 02 0c 67 bf d2 19 60 bf 4d 05 42 bf 6a 0c 75 bf
       -0.902527 -0.875394 -0.7578934 -0.9572207
000030 18 e7 65 bf 5c 2a 66 bf 32 68 55 bf cd 74 2e bf
       -0.89805746 -0.89908385 -0.83362114 -0.68146974
000040 7a aa 80 bf ac 23 32 bf c9 0a 91 bf d9 e2 8a bf
       -1.0052025 -0.6958568 -1.1331416 -1.0850478
000050 7f 83 b0 bf 00 61 61 bf 2a dd b9 be 68 bc 54 bf
       -1.379013 -0.88038635 -0.36301547 -0.83099985
000060 cf f3 82 bf c6 14 a9 bf 01 77 19 be 1b db a0 bf
       -1.0230654 -1.3209465 -0.14986803 -1.2566866
000070 5d b3 60 bf 7f f8 5f bf 7e a6 f1 be cc 0f 4c bf
       -0.87773687 -0.8748855 -0.47197336 -0.79711604
000080 aa 4e 96 bf 82 7c e8 be 26 b0 2d bf 9a b3 3b bf
       -1.1742756 -0.45407492 -0.67846906 -0.73320925
000090 3e 14 37 bf e7 3d 8d bf 34 e8 91 bf 6e 02 54 bf
       -0.7151526 -1.1034516 -1.1398988 -0.8281621
0000a0 68 55 5b bf a4 26 43 bf 18 c0 94 bf 65 28 9b bf
       -0.85677195 -0.76230836 -1.1621122 -1.2121702
0000b0 75 66 19 bf 77 f4 24 bf b3 8b 43 bf e2 24 8c bf
       -0.5992196 -0.64435524 -0.7638504 -1.0948756
0000c0 0b ca b4 bf 1a bf 62 bf 50 cf 2b bf 34 e3 49 bf
       -1.4124159 -0.8857285 -0.6711321 -0.7886231
0000d0 96 a1 f6 be 65 d0 77 bf de 7c 4b bf 4b f3 40 bf
       -0.48170155 -0.9680236 -0.7948741 -0.75371236
0000e0 bd 72 fb be c6 82 36 bf 5c 6b fe be 79 77 35 bf
       -0.49110976 -0.71293294 -0.49691284 -0.70885426
0000f0 d4 6a 2c bf f0 4f 6d bf 8d 14 a0 bf 8d e0 6f bf
       -0.67350507 -0.927001 -1.2506272 -0.9370201

encoder.9.running_mean f4 [64]
000000 c6 e6 38 c1 5f b2 fb c0 29 4c 79 c0 48 12 d8 c0
       -11.556341 -7.865524 -3.8952734 -6.7522316
000010 d8 2c d1 c0 7c 80 ef c0 d0 a3 a9 c0 49 c3 e3 c0
       -6.536724 -7.484434 -5.3012466 -7.1175885
000020 63 23 2b c1 2b 27 16 c1 1d bd b8 c0 fa b1 12 c1
       -10.696139 -9.3845625 -5.773085 -9.168451
000030 bc 68 cf c0 99 97 ad c0 df 7a 4c c1 3b 35 1e c1
       -6.481535 -5.4247556 -12.779998 -9.887996
000040 ce 56 07 c0 5f b7 0b c1 c8 c3 bf c0 5d 23 0a c1
       -2.1146731 -8.732268 -5.992649 -8.633634
000050 3f ac 19 c1 cd fc ef c0 6e 47 02 c1 f4 b8 8a c0
       -9.604552 -7.4996095 -8.142439 -4.3350773
000060 bc bd 87 c0 ee ad bb c0 26 96 da c0 49 b9 80 c0
       -4.241911 -5.8649817 -6.8308287 -4.022618
000070 c2 d9 0a c1 16 71 18 c1 5b bd e1 c0 d4 98 d8 c0
       -8.678164 -9.527609 -7.0543647 -6.768656
000080 ab 08 ed c0 6e bd fb c0 b9 8b 28 c1 43 ee 83 c0
       -7.407308 -7.8668737 -10.534112 -4.1228347
000090 f5 4b 04 c1 8a b9 c9 c0 3f 50 03 c1 76 38 d2 c0
       -8.268544 -6.303899 -8.207091 -6.569392
0000a0 49 3f b0 c0 a7 6c b9 c0 27 90 ee c0 03 c7 fa c0
       -5.5077252 -5.794513 -7.4550967 -7.8367934
0000b0 5e 12 a6 c0 4e bb 00 c1 97 19 2a c1 de 7f 0c c1
       -5.189742 -8.045729 -10.6312475 -8.781218
0000c0 55 be f9 c0 93 18 21 c1 9c 7c e3 c0 10 c4 a7 c0
       -7.804484 -10.0685 -7.108961 -5.2426834
0000d0 21 f0 e4 c0 b9 e7 d2 c0 5c ed 0e c1 94 d9 10 c1
       -7.1543126 -6.5907865 -8.932949 -9.05312
0000e0 91 29 c2 c0 90 ca f5 c0 3f 92 b5 c0 8d d4 df c0
       -6.067574 -7.680977 -5.6741023 -6.994696
0000f0 36 90 af c0 eb b6 a3 c0 01 3e 98 bf bf 4a b3 c0
       -5.486354 -5.116079 -1.1893922 -5.6028743

encoder.9.running_var f4 [64]
000000 bd cf 8b 42 e9 70 62 42 7b e9 48 42 f7 67 5e 42
       69.90574 56.610264 50.22801 55.60153
000010 5f db 60 42 07 a8 55 42 12 46 46 42 f2 01 5a 42
       56.21423 53.41409 49.568428 54.5019
000020 7e 19 9f 42 a3 f7 87 42 9e c2 79 42 75 07 79 42
       79.54979 67.983665 62.440056 62.257282
000030 b4 36 81 42 26 6d 3f 42 4f 3e 7c 42 69 37 78 42
       64.60684 47.85659 63.06085 62.05411
000040 b2 d3 52 42 45 16 58 42 95 b8 65 42 ff d9 a6 42
       52.706734 54.021748 57.430256 83.42577
000050 74 0e 6f 42 8b db 64 42 9b 2b a7 42 a2 9d 72 42
       59.764114 57.214397 83.58517 60.65394
000060 22 84 7d 42 91 0b 83 42 f4 16 84 42 61 a2 48 42
       63.379036 65.52259 66.04483 50.158573
000070 cc e6 49 42 6d 8d 8b 42 f6 b5 9e 42 c1 c3 58 42
       50.475388 69.77622 79.35539 54.191166
000080 84 7d 4e 42 c9 95 9a 42 71 0c 63 42 14 4f 41 42
       51.622574 77.29255 56.76215 48.327225
000090 23 7f 92 42 62 34 6e 42 67 6f 65 42 3a 85 22 42
       73.248314 59.551155 57.35879 40.630104
0000a0 c5 31 35 42 67 b3 43 42 18 37 4a 42 1f 95 5e 42
       45.298603 48.925198 50.553802 55.645626
0000b0 d8 88 1c 42 4e 25 80 42 02 e3 89 42 38 b8 57 42
       39.133636 64.07286 68.943375 53.9299
0000c0 fa 3e 5b 42 19 64 90 42 60 8c 5a 42 91 62 4f 42
       54.8115 72.1955 54.637085 51.846256
0000d0 26 ae 83 42 23 3c 78 42 b2 06 8a 42 4d 08 41 42
       65.84013 62.058727 69.01308 48.258106
0000e0 5c 34 61 42 15 d3 63 42 3b de 79 42 cc 59 57 42
       56.301132 56.956135 62.467022 53.837692
0000f0 1f 7b 53 42 38 dc 6b 42 08 60 3a 42 7b ae 45 42
       52.870235 58.965057 46.59378 49.42039
